ST Edge AI Core v2.2.0-20266 2adc00962
Created date          : 2025-12-04 13:35:02
Parameters            : generate --target stm32f7 --name od_model -m C:/Users/redninjale/Downloads/cat_ultimate_final.tflite --compression none --verbosity 1 --workspace C:/Users/REDNIN~1/AppData/Local/Temp/mxAI_workspace2557406301994005021084599714808030 --output C:/Users/redninjale/.stm32cubemx/od_model_output

Exec/report summary (generate)
----------------------------------------------------------------------------------------------------------------------------------
model file         :   C:\Users\redninjale\Downloads\cat_ultimate_final.tflite                                                    
type               :   tflite                                                                                                     
c_name             :   od_model                                                                                                   
compression        :   none                                                                                                       
options            :   allocate-inputs, allocate-outputs                                                                          
optimization       :   balanced                                                                                                   
target/series      :   stm32f7                                                                                                    
workspace dir      :   C:\Users\REDNIN~1\AppData\Local\Temp\mxAI_workspace2557406301994005021084599714808030                      
output dir         :   C:\Users\redninjale\.stm32cubemx\od_model_output                                                           
model_fmt          :   ss/sa per channel                                                                                          
model_name         :   cat_ultimate_final                                                                                         
model_hash         :   0x1d36e228d36f090be490f86d5fb1e09d                                                                         
params #           :   157,701 items (167.12 KiB)                                                                                 
----------------------------------------------------------------------------------------------------------------------------------
input 1/1          :   'serving_default_input_30', int8(1x128x128x3), 48.00 KBytes, QLinear(0.003921569,-128,int8), activations   
output 1/1         :   'nl_52', int8(1x5), 5 Bytes, QLinear(0.003906250,-128,int8), activations                                   
macc               :   21,951,082                                                                                                 
weights (ro)       :   171,132 B (167.12 KiB) (1 segment) / -459,672(-72.9%) vs float model                                       
activations (rw)   :   214,208 B (209.19 KiB) (1 segment) *                                                                       
ram (total)        :   214,208 B (209.19 KiB) = 214,208 + 0 + 0                                                                   
----------------------------------------------------------------------------------------------------------------------------------
(*) 'input'/'output' buffers are allocated in the activations buffer

Model name - cat_ultimate_final
------ -------------------------------------------- ----------------------- --------------- ----------- -------------------------- --- --------------- --------------------- ---------------------- 
m_id   layer (type,original)                        oshape                  param/size             macc               connected to   | c_size          c_macc                c_type                 
------ -------------------------------------------- ----------------------- --------------- ----------- -------------------------- --- --------------- --------------------- ---------------------- 
0      serving_default_input_30 (Input, )           [b:1,h:128,w:128,c:3]                                                            | +496(+100.0%)   +1,769,488(+100.0%)   Conv2D_[0]             
       conv2d_0 (Conv2D, CONV_2D)                   [b:1,h:64,w:64,c:16]    448/496           1,769,488   serving_default_input_30   | -496(-100.0%)   -1,769,488(-100.0%)   
       nl_0_nl (Nonlinearity, CONV_2D)              [b:1,h:64,w:64,c:16]                         65,536                   conv2d_0   |                 -65,536(-100.0%)      
------ -------------------------------------------- ----------------------- --------------- ----------- -------------------------- --- --------------- --------------------- ---------------------- 
1      conv2d_1 (Conv2D, DEPTHWISE_CONV_2D)         [b:1,h:64,w:64,c:16]    160/208             589,840                    nl_0_nl   |                                       Pad_/Conv2D_[1, 2]     
       nl_1_nl (Nonlinearity, DEPTHWISE_CONV_2D)    [b:1,h:64,w:64,c:16]                         65,536                   conv2d_1   |                 -65,536(-100.0%)      
------ -------------------------------------------- ----------------------- --------------- ----------- -------------------------- --- --------------- --------------------- ---------------------- 
2      conv2d_2 (Conv2D, CONV_2D)                   [b:1,h:64,w:64,c:8]     136/160             524,296                    nl_1_nl   |                                       Conv2D_[3]             
------ -------------------------------------------- ----------------------- --------------- ----------- -------------------------- --- --------------- --------------------- ---------------------- 
3      conv2d_3 (Conv2D, CONV_2D)                   [b:1,h:64,w:64,c:48]    432/576           1,572,912                   conv2d_2   |                                       Conv2D_[4]             
       nl_3_nl (Nonlinearity, CONV_2D)              [b:1,h:64,w:64,c:48]                        196,608                   conv2d_3   |                 -196,608(-100.0%)     
------ -------------------------------------------- ----------------------- --------------- ----------- -------------------------- --- --------------- --------------------- ---------------------- 
4      conv2d_4 (Conv2D, DEPTHWISE_CONV_2D)         [b:1,h:32,w:32,c:48]    480/624             442,416                    nl_3_nl   |                                       Pad_/Conv2D_[5, 6]     
       nl_4_nl (Nonlinearity, DEPTHWISE_CONV_2D)    [b:1,h:32,w:32,c:48]                         49,152                   conv2d_4   |                 -49,152(-100.0%)      
------ -------------------------------------------- ----------------------- --------------- ----------- -------------------------- --- --------------- --------------------- ---------------------- 
5      conv2d_5 (Conv2D, CONV_2D)                   [b:1,h:32,w:32,c:16]    784/832             786,448                    nl_4_nl   |                                       Conv2D_[7]             
------ -------------------------------------------- ----------------------- --------------- ----------- -------------------------- --- --------------- --------------------- ---------------------- 
6      conv2d_6 (Conv2D, CONV_2D)                   [b:1,h:32,w:32,c:96]    1,632/1,920       1,572,960                   conv2d_5   |                                       Conv2D_[8]             
       nl_6_nl (Nonlinearity, CONV_2D)              [b:1,h:32,w:32,c:96]                         98,304                   conv2d_6   |                 -98,304(-100.0%)      
------ -------------------------------------------- ----------------------- --------------- ----------- -------------------------- --- --------------- --------------------- ---------------------- 
7      conv2d_7 (Conv2D, DEPTHWISE_CONV_2D)         [b:1,h:32,w:32,c:96]    960/1,248           884,832                    nl_6_nl   |                                       Pad_/Conv2D_[9, 10]    
       nl_7_nl (Nonlinearity, DEPTHWISE_CONV_2D)    [b:1,h:32,w:32,c:96]                         98,304                   conv2d_7   |                 -98,304(-100.0%)      
------ -------------------------------------------- ----------------------- --------------- ----------- -------------------------- --- --------------- --------------------- ---------------------- 
8      conv2d_8 (Conv2D, CONV_2D)                   [b:1,h:32,w:32,c:16]    1,552/1,600       1,572,880                    nl_7_nl   |                                       Conv2D_[11]            
------ -------------------------------------------- ----------------------- --------------- ----------- -------------------------- --- --------------- --------------------- ---------------------- 
9      eltwise_9 (Eltwise, ADD)                     [b:1,h:32,w:32,c:16]                         16,384                   conv2d_5   |                                       Eltwise/add_[12]       
                                                                                                                          conv2d_8   | 
------ -------------------------------------------- ----------------------- --------------- ----------- -------------------------- --- --------------- --------------------- ---------------------- 
10     conv2d_10 (Conv2D, CONV_2D)                  [b:1,h:32,w:32,c:96]    1,632/1,920       1,572,960                  eltwise_9   |                                       Conv2D_[13]            
       nl_10_nl (Nonlinearity, CONV_2D)             [b:1,h:32,w:32,c:96]                         98,304                  conv2d_10   |                 -98,304(-100.0%)      
------ -------------------------------------------- ----------------------- --------------- ----------- -------------------------- --- --------------- --------------------- ---------------------- 
11     conv2d_11 (Conv2D, DEPTHWISE_CONV_2D)        [b:1,h:16,w:16,c:96]    960/1,248           221,280                   nl_10_nl   |                                       Pad_/Conv2D_[14, 15]   
       nl_11_nl (Nonlinearity, DEPTHWISE_CONV_2D)   [b:1,h:16,w:16,c:96]                         24,576                  conv2d_11   |                 -24,576(-100.0%)      
------ -------------------------------------------- ----------------------- --------------- ----------- -------------------------- --- --------------- --------------------- ---------------------- 
12     conv2d_12 (Conv2D, CONV_2D)                  [b:1,h:16,w:16,c:16]    1,552/1,600         393,232                   nl_11_nl   |                                       Conv2D_[16]            
------ -------------------------------------------- ----------------------- --------------- ----------- -------------------------- --- --------------- --------------------- ---------------------- 
13     conv2d_13 (Conv2D, CONV_2D)                  [b:1,h:16,w:16,c:96]    1,632/1,920         393,312                  conv2d_12   |                                       Conv2D_[17]            
       nl_13_nl (Nonlinearity, CONV_2D)             [b:1,h:16,w:16,c:96]                         24,576                  conv2d_13   |                 -24,576(-100.0%)      
------ -------------------------------------------- ----------------------- --------------- ----------- -------------------------- --- --------------- --------------------- ---------------------- 
14     conv2d_14 (Conv2D, DEPTHWISE_CONV_2D)        [b:1,h:16,w:16,c:96]    960/1,248           221,280                   nl_13_nl   |                                       Pad_/Conv2D_[18, 19]   
       nl_14_nl (Nonlinearity, DEPTHWISE_CONV_2D)   [b:1,h:16,w:16,c:96]                         24,576                  conv2d_14   |                 -24,576(-100.0%)      
------ -------------------------------------------- ----------------------- --------------- ----------- -------------------------- --- --------------- --------------------- ---------------------- 
15     conv2d_15 (Conv2D, CONV_2D)                  [b:1,h:16,w:16,c:16]    1,552/1,600         393,232                   nl_14_nl   |                                       Conv2D_[20]            
------ -------------------------------------------- ----------------------- --------------- ----------- -------------------------- --- --------------- --------------------- ---------------------- 
16     eltwise_16 (Eltwise, ADD)                    [b:1,h:16,w:16,c:16]                          4,096                  conv2d_12   |                                       Eltwise/add_[21]       
                                                                                                                         conv2d_15   | 
------ -------------------------------------------- ----------------------- --------------- ----------- -------------------------- --- --------------- --------------------- ---------------------- 
17     conv2d_17 (Conv2D, CONV_2D)                  [b:1,h:16,w:16,c:96]    1,632/1,920         393,312                 eltwise_16   |                                       Conv2D_[22]            
       nl_17_nl (Nonlinearity, CONV_2D)             [b:1,h:16,w:16,c:96]                         24,576                  conv2d_17   |                 -24,576(-100.0%)      
------ -------------------------------------------- ----------------------- --------------- ----------- -------------------------- --- --------------- --------------------- ---------------------- 
18     conv2d_18 (Conv2D, DEPTHWISE_CONV_2D)        [b:1,h:16,w:16,c:96]    960/1,248           221,280                   nl_17_nl   |                                       Pad_/Conv2D_[23, 24]   
       nl_18_nl (Nonlinearity, DEPTHWISE_CONV_2D)   [b:1,h:16,w:16,c:96]                         24,576                  conv2d_18   |                 -24,576(-100.0%)      
------ -------------------------------------------- ----------------------- --------------- ----------- -------------------------- --- --------------- --------------------- ---------------------- 
19     conv2d_19 (Conv2D, CONV_2D)                  [b:1,h:16,w:16,c:16]    1,552/1,600         393,232                   nl_18_nl   |                                       Conv2D_[25]            
------ -------------------------------------------- ----------------------- --------------- ----------- -------------------------- --- --------------- --------------------- ---------------------- 
20     eltwise_20 (Eltwise, ADD)                    [b:1,h:16,w:16,c:16]                          4,096                 eltwise_16   |                                       Eltwise/add_[26]       
                                                                                                                         conv2d_19   | 
------ -------------------------------------------- ----------------------- --------------- ----------- -------------------------- --- --------------- --------------------- ---------------------- 
21     conv2d_21 (Conv2D, CONV_2D)                  [b:1,h:16,w:16,c:96]    1,632/1,920         393,312                 eltwise_20   |                                       Conv2D_[27]            
       nl_21_nl (Nonlinearity, CONV_2D)             [b:1,h:16,w:16,c:96]                         24,576                  conv2d_21   |                 -24,576(-100.0%)      
------ -------------------------------------------- ----------------------- --------------- ----------- -------------------------- --- --------------- --------------------- ---------------------- 
22     conv2d_22 (Conv2D, DEPTHWISE_CONV_2D)        [b:1,h:8,w:8,c:96]      960/1,248            55,392                   nl_21_nl   |                                       Pad_/Conv2D_[28, 29]   
       nl_22_nl (Nonlinearity, DEPTHWISE_CONV_2D)   [b:1,h:8,w:8,c:96]                            6,144                  conv2d_22   |                 -6,144(-100.0%)       
------ -------------------------------------------- ----------------------- --------------- ----------- -------------------------- --- --------------- --------------------- ---------------------- 
23     conv2d_23 (Conv2D, CONV_2D)                  [b:1,h:8,w:8,c:32]      3,104/3,200         196,640                   nl_22_nl   |                                       Conv2D_[30]            
------ -------------------------------------------- ----------------------- --------------- ----------- -------------------------- --- --------------- --------------------- ---------------------- 
24     conv2d_24 (Conv2D, CONV_2D)                  [b:1,h:8,w:8,c:192]     6,336/6,912         393,408                  conv2d_23   |                                       Conv2D_[31]            
       nl_24_nl (Nonlinearity, CONV_2D)             [b:1,h:8,w:8,c:192]                          12,288                  conv2d_24   |                 -12,288(-100.0%)      
------ -------------------------------------------- ----------------------- --------------- ----------- -------------------------- --- --------------- --------------------- ---------------------- 
25     conv2d_25 (Conv2D, DEPTHWISE_CONV_2D)        [b:1,h:8,w:8,c:192]     1,920/2,496         110,784                   nl_24_nl   |                                       Pad_/Conv2D_[32, 33]   
       nl_25_nl (Nonlinearity, DEPTHWISE_CONV_2D)   [b:1,h:8,w:8,c:192]                          12,288                  conv2d_25   |                 -12,288(-100.0%)      
------ -------------------------------------------- ----------------------- --------------- ----------- -------------------------- --- --------------- --------------------- ---------------------- 
26     conv2d_26 (Conv2D, CONV_2D)                  [b:1,h:8,w:8,c:32]      6,176/6,272         393,248                   nl_25_nl   |                                       Conv2D_[34]            
------ -------------------------------------------- ----------------------- --------------- ----------- -------------------------- --- --------------- --------------------- ---------------------- 
27     eltwise_27 (Eltwise, ADD)                    [b:1,h:8,w:8,c:32]                            2,048                  conv2d_23   |                                       Eltwise/add_[35]       
                                                                                                                         conv2d_26   | 
------ -------------------------------------------- ----------------------- --------------- ----------- -------------------------- --- --------------- --------------------- ---------------------- 
28     conv2d_28 (Conv2D, CONV_2D)                  [b:1,h:8,w:8,c:192]     6,336/6,912         393,408                 eltwise_27   |                                       Conv2D_[36]            
       nl_28_nl (Nonlinearity, CONV_2D)             [b:1,h:8,w:8,c:192]                          12,288                  conv2d_28   |                 -12,288(-100.0%)      
------ -------------------------------------------- ----------------------- --------------- ----------- -------------------------- --- --------------- --------------------- ---------------------- 
29     conv2d_29 (Conv2D, DEPTHWISE_CONV_2D)        [b:1,h:8,w:8,c:192]     1,920/2,496         110,784                   nl_28_nl   |                                       Pad_/Conv2D_[37, 38]   
       nl_29_nl (Nonlinearity, DEPTHWISE_CONV_2D)   [b:1,h:8,w:8,c:192]                          12,288                  conv2d_29   |                 -12,288(-100.0%)      
------ -------------------------------------------- ----------------------- --------------- ----------- -------------------------- --- --------------- --------------------- ---------------------- 
30     conv2d_30 (Conv2D, CONV_2D)                  [b:1,h:8,w:8,c:32]      6,176/6,272         393,248                   nl_29_nl   |                                       Conv2D_[39]            
------ -------------------------------------------- ----------------------- --------------- ----------- -------------------------- --- --------------- --------------------- ---------------------- 
31     eltwise_31 (Eltwise, ADD)                    [b:1,h:8,w:8,c:32]                            2,048                 eltwise_27   |                                       Eltwise/add_[40]       
                                                                                                                         conv2d_30   | 
------ -------------------------------------------- ----------------------- --------------- ----------- -------------------------- --- --------------- --------------------- ---------------------- 
32     conv2d_32 (Conv2D, CONV_2D)                  [b:1,h:8,w:8,c:192]     6,336/6,912         393,408                 eltwise_31   |                                       Conv2D_[41]            
       nl_32_nl (Nonlinearity, CONV_2D)             [b:1,h:8,w:8,c:192]                          12,288                  conv2d_32   |                 -12,288(-100.0%)      
------ -------------------------------------------- ----------------------- --------------- ----------- -------------------------- --- --------------- --------------------- ---------------------- 
33     conv2d_33 (Conv2D, DEPTHWISE_CONV_2D)        [b:1,h:8,w:8,c:192]     1,920/2,496         110,784                   nl_32_nl   |                                       Pad_/Conv2D_[42, 43]   
       nl_33_nl (Nonlinearity, DEPTHWISE_CONV_2D)   [b:1,h:8,w:8,c:192]                          12,288                  conv2d_33   |                 -12,288(-100.0%)      
------ -------------------------------------------- ----------------------- --------------- ----------- -------------------------- --- --------------- --------------------- ---------------------- 
34     conv2d_34 (Conv2D, CONV_2D)                  [b:1,h:8,w:8,c:32]      6,176/6,272         393,248                   nl_33_nl   |                                       Conv2D_[44]            
------ -------------------------------------------- ----------------------- --------------- ----------- -------------------------- --- --------------- --------------------- ---------------------- 
35     eltwise_35 (Eltwise, ADD)                    [b:1,h:8,w:8,c:32]                            2,048                 eltwise_31   |                                       Eltwise/add_[45]       
                                                                                                                         conv2d_34   | 
------ -------------------------------------------- ----------------------- --------------- ----------- -------------------------- --- --------------- --------------------- ---------------------- 
36     conv2d_36 (Conv2D, CONV_2D)                  [b:1,h:8,w:8,c:192]     6,336/6,912         393,408                 eltwise_35   |                                       Conv2D_[46]            
       nl_36_nl (Nonlinearity, CONV_2D)             [b:1,h:8,w:8,c:192]                          12,288                  conv2d_36   |                 -12,288(-100.0%)      
------ -------------------------------------------- ----------------------- --------------- ----------- -------------------------- --- --------------- --------------------- ---------------------- 
37     conv2d_37 (Conv2D, DEPTHWISE_CONV_2D)        [b:1,h:8,w:8,c:192]     1,920/2,496         110,784                   nl_36_nl   |                                       Pad_/Conv2D_[47, 48]   
       nl_37_nl (Nonlinearity, DEPTHWISE_CONV_2D)   [b:1,h:8,w:8,c:192]                          12,288                  conv2d_37   |                 -12,288(-100.0%)      
------ -------------------------------------------- ----------------------- --------------- ----------- -------------------------- --- --------------- --------------------- ---------------------- 
38     conv2d_38 (Conv2D, CONV_2D)                  [b:1,h:8,w:8,c:40]      7,720/7,840         491,560                   nl_37_nl   |                                       Conv2D_[49]            
------ -------------------------------------------- ----------------------- --------------- ----------- -------------------------- --- --------------- --------------------- ---------------------- 
39     conv2d_39 (Conv2D, CONV_2D)                  [b:1,h:8,w:8,c:240]     9,840/10,560        614,640                  conv2d_38   |                                       Conv2D_[50]            
       nl_39_nl (Nonlinearity, CONV_2D)             [b:1,h:8,w:8,c:240]                          15,360                  conv2d_39   |                 -15,360(-100.0%)      
------ -------------------------------------------- ----------------------- --------------- ----------- -------------------------- --- --------------- --------------------- ---------------------- 
40     conv2d_40 (Conv2D, DEPTHWISE_CONV_2D)        [b:1,h:8,w:8,c:240]     2,400/3,120         138,480                   nl_39_nl   |                                       Pad_/Conv2D_[51, 52]   
       nl_40_nl (Nonlinearity, DEPTHWISE_CONV_2D)   [b:1,h:8,w:8,c:240]                          15,360                  conv2d_40   |                 -15,360(-100.0%)      
------ -------------------------------------------- ----------------------- --------------- ----------- -------------------------- --- --------------- --------------------- ---------------------- 
41     conv2d_41 (Conv2D, CONV_2D)                  [b:1,h:8,w:8,c:40]      9,640/9,760         614,440                   nl_40_nl   |                                       Conv2D_[53]            
------ -------------------------------------------- ----------------------- --------------- ----------- -------------------------- --- --------------- --------------------- ---------------------- 
42     eltwise_42 (Eltwise, ADD)                    [b:1,h:8,w:8,c:40]                            2,560                  conv2d_38   |                                       Eltwise/add_[54]       
                                                                                                                         conv2d_41   | 
------ -------------------------------------------- ----------------------- --------------- ----------- -------------------------- --- --------------- --------------------- ---------------------- 
43     conv2d_43 (Conv2D, CONV_2D)                  [b:1,h:8,w:8,c:240]     9,840/10,560        614,640                 eltwise_42   |                                       Conv2D_[55]            
       nl_43_nl (Nonlinearity, CONV_2D)             [b:1,h:8,w:8,c:240]                          15,360                  conv2d_43   |                 -15,360(-100.0%)      
------ -------------------------------------------- ----------------------- --------------- ----------- -------------------------- --- --------------- --------------------- ---------------------- 
44     conv2d_44 (Conv2D, DEPTHWISE_CONV_2D)        [b:1,h:8,w:8,c:240]     2,400/3,120         138,480                   nl_43_nl   |                                       Pad_/Conv2D_[56, 57]   
       nl_44_nl (Nonlinearity, DEPTHWISE_CONV_2D)   [b:1,h:8,w:8,c:240]                          15,360                  conv2d_44   |                 -15,360(-100.0%)      
------ -------------------------------------------- ----------------------- --------------- ----------- -------------------------- --- --------------- --------------------- ---------------------- 
45     conv2d_45 (Conv2D, CONV_2D)                  [b:1,h:8,w:8,c:40]      9,640/9,760         614,440                   nl_44_nl   |                                       Conv2D_[58]            
------ -------------------------------------------- ----------------------- --------------- ----------- -------------------------- --- --------------- --------------------- ---------------------- 
46     eltwise_46 (Eltwise, ADD)                    [b:1,h:8,w:8,c:40]                            2,560                 eltwise_42   |                                       Eltwise/add_[59]       
                                                                                                                         conv2d_45   | 
------ -------------------------------------------- ----------------------- --------------- ----------- -------------------------- --- --------------- --------------------- ---------------------- 
47     conv2d_47 (Conv2D, CONV_2D)                  [b:1,h:8,w:8,c:240]     9,840/10,560        614,640                 eltwise_46   |                                       Conv2D_[60]            
       nl_47_nl (Nonlinearity, CONV_2D)             [b:1,h:8,w:8,c:240]                          15,360                  conv2d_47   |                 -15,360(-100.0%)      
------ -------------------------------------------- ----------------------- --------------- ----------- -------------------------- --- --------------- --------------------- ---------------------- 
48     conv2d_48 (Conv2D, DEPTHWISE_CONV_2D)        [b:1,h:4,w:4,c:240]     2,400/3,120          34,800                   nl_47_nl   |                                       Pad_/Conv2D_[61, 62]   
       nl_48_nl (Nonlinearity, DEPTHWISE_CONV_2D)   [b:1,h:4,w:4,c:240]                           3,840                  conv2d_48   |                 -3,840(-100.0%)       
------ -------------------------------------------- ----------------------- --------------- ----------- -------------------------- --- --------------- --------------------- ---------------------- 
49     conv2d_49 (Conv2D, CONV_2D)                  [b:1,h:4,w:4,c:72]      17,352/17,568       276,552                   nl_48_nl   |                                       Conv2D_[63]            
------ -------------------------------------------- ----------------------- --------------- ----------- -------------------------- --- --------------- --------------------- ---------------------- 
50     pool_50 (Pool, MEAN)                         [b:1,h:1,w:1,c:72]                            1,152                  conv2d_49   |                                       Pool_[64]              
       reshape_50_reshape (Reshape, MEAN)           [b:1,c:72]                                                             pool_50   |                                       
------ -------------------------------------------- ----------------------- --------------- ----------- -------------------------- --- --------------- --------------------- ---------------------- 
51     tfl_pseudo_qconst1 (Placeholder, )           [b:5,c:72]              360/360                                                  | +20(+5.6%)      +365(+100.0%)         Dense_[65]             
       tfl_pseudo_qconst (Placeholder, )            [b:5]                   5/20                                                     | -20(-100.0%)                          
       gemm_51 (Gemm, FULLY_CONNECTED)              [b:1,c:5]                                       365         reshape_50_reshape   |                 -365(-100.0%)         
                                                                                                                tfl_pseudo_qconst1   | 
                                                                                                                 tfl_pseudo_qconst   | 
------ -------------------------------------------- ----------------------- --------------- ----------- -------------------------- --- --------------- --------------------- ---------------------- 
52     nl_52 (Nonlinearity, LOGISTIC)               [b:1,c:5]                                        50                    gemm_51   |                 -45(-90.0%)           Nonlinearity_[o][66]   
------ -------------------------------------------- ----------------------- --------------- ----------- -------------------------- --- --------------- --------------------- ---------------------- 
model/c-model: macc=22,955,415/21,951,082 -1,004,333(-4.4%) weights=171,132/171,132  activations=--/214,208 io=--/0



Generated C-graph summary
------------------------------------------------------------------------------------------------------------------------
model name            : cat_ultimate_final
c-name                : od_model
c-node #              : 67
c-array #             : 197
activations size      : 214208 (1 segment)
weights size          : 171132 (1 segment)
macc                  : 21951082
inputs                : ['serving_default_input_30_output']
outputs               : ['nl_52_output']

C-Arrays (197)
------ --------------------------------- --------------- ------------------------- ----------- --------- 
c_id   name (*_array)                    item/size       domain/mem-pool           c-type      comment   
------ --------------------------------- --------------- ------------------------- ----------- --------- 
0      conv2d_0_bias                     16/64           weights/weights           const s32             
1      conv2d_0_output                   65536/65536     activations/**default**   s8                    
2      conv2d_0_scratch0                 1196/1196       activations/**default**   s8                    
3      conv2d_0_weights                  432/432         weights/weights           const s8              
4      conv2d_10_bias                    96/384          weights/weights           const s32             
5      conv2d_10_output                  98304/98304     activations/**default**   s8                    
6      conv2d_10_scratch0                1024/1024       activations/**default**   s8                    
7      conv2d_10_weights                 1536/1536       weights/weights           const s8              
8      conv2d_11_bias                    96/384          weights/weights           const s32             
9      conv2d_11_output                  24576/24576     activations/**default**   s8                    
10     conv2d_11_pad_before_output       110976/110976   activations/**default**   s8                    
11     conv2d_11_scratch0                3553/3553       activations/**default**   s8                    
12     conv2d_11_weights                 864/864         weights/weights           const s8              
13     conv2d_12_bias                    16/64           weights/weights           const s32             
14     conv2d_12_output                  4096/4096       activations/**default**   s8                    
15     conv2d_12_scratch0                544/544         activations/**default**   s8                    
16     conv2d_12_weights                 1536/1536       weights/weights           const s8              
17     conv2d_13_bias                    96/384          weights/weights           const s32             
18     conv2d_13_output                  24576/24576     activations/**default**   s8                    
19     conv2d_13_scratch0                1024/1024       activations/**default**   s8                    
20     conv2d_13_weights                 1536/1536       weights/weights           const s8              
21     conv2d_14_bias                    96/384          weights/weights           const s32             
22     conv2d_14_output                  24576/24576     activations/**default**   s8                    
23     conv2d_14_pad_before_output       31104/31104     activations/**default**   s8                    
24     conv2d_14_scratch0                3553/3553       activations/**default**   s8                    
25     conv2d_14_weights                 864/864         weights/weights           const s8              
26     conv2d_15_bias                    16/64           weights/weights           const s32             
27     conv2d_15_output                  4096/4096       activations/**default**   s8                    
28     conv2d_15_scratch0                544/544         activations/**default**   s8                    
29     conv2d_15_weights                 1536/1536       weights/weights           const s8              
30     conv2d_17_bias                    96/384          weights/weights           const s32             
31     conv2d_17_output                  24576/24576     activations/**default**   s8                    
32     conv2d_17_scratch0                1024/1024       activations/**default**   s8                    
33     conv2d_17_weights                 1536/1536       weights/weights           const s8              
34     conv2d_18_bias                    96/384          weights/weights           const s32             
35     conv2d_18_output                  24576/24576     activations/**default**   s8                    
36     conv2d_18_pad_before_output       31104/31104     activations/**default**   s8                    
37     conv2d_18_scratch0                3553/3553       activations/**default**   s8                    
38     conv2d_18_weights                 864/864         weights/weights           const s8              
39     conv2d_19_bias                    16/64           weights/weights           const s32             
40     conv2d_19_output                  4096/4096       activations/**default**   s8                    
41     conv2d_19_scratch0                544/544         activations/**default**   s8                    
42     conv2d_19_weights                 1536/1536       weights/weights           const s8              
43     conv2d_1_bias                     16/64           weights/weights           const s32             
44     conv2d_1_output                   65536/65536     activations/**default**   s8                    
45     conv2d_1_pad_before_output        69696/69696     activations/**default**   s8                    
46     conv2d_1_scratch0                 593/593         activations/**default**   s8                    
47     conv2d_1_weights                  144/144         weights/weights           const s8              
48     conv2d_21_bias                    96/384          weights/weights           const s32             
49     conv2d_21_output                  24576/24576     activations/**default**   s8                    
50     conv2d_21_scratch0                1024/1024       activations/**default**   s8                    
51     conv2d_21_weights                 1536/1536       weights/weights           const s8              
52     conv2d_22_bias                    96/384          weights/weights           const s32             
53     conv2d_22_output                  6144/6144       activations/**default**   s8                    
54     conv2d_22_pad_before_output       31104/31104     activations/**default**   s8                    
55     conv2d_22_scratch0                3553/3553       activations/**default**   s8                    
56     conv2d_22_weights                 864/864         weights/weights           const s8              
57     conv2d_23_bias                    32/128          weights/weights           const s32             
58     conv2d_23_output                  2048/2048       activations/**default**   s8                    
59     conv2d_23_scratch0                704/704         activations/**default**   s8                    
60     conv2d_23_weights                 3072/3072       weights/weights           const s8              
61     conv2d_24_bias                    192/768         weights/weights           const s32             
62     conv2d_24_output                  12288/12288     activations/**default**   s8                    
63     conv2d_24_scratch0                2048/2048       activations/**default**   s8                    
64     conv2d_24_weights                 6144/6144       weights/weights           const s8              
65     conv2d_25_bias                    192/768         weights/weights           const s32             
66     conv2d_25_output                  12288/12288     activations/**default**   s8                    
67     conv2d_25_pad_before_output       19200/19200     activations/**default**   s8                    
68     conv2d_25_scratch0                7105/7105       activations/**default**   s8                    
69     conv2d_25_weights                 1728/1728       weights/weights           const s8              
70     conv2d_26_bias                    32/128          weights/weights           const s32             
71     conv2d_26_output                  2048/2048       activations/**default**   s8                    
72     conv2d_26_scratch0                1088/1088       activations/**default**   s8                    
73     conv2d_26_weights                 6144/6144       weights/weights           const s8              
74     conv2d_28_bias                    192/768         weights/weights           const s32             
75     conv2d_28_output                  12288/12288     activations/**default**   s8                    
76     conv2d_28_scratch0                2048/2048       activations/**default**   s8                    
77     conv2d_28_weights                 6144/6144       weights/weights           const s8              
78     conv2d_29_bias                    192/768         weights/weights           const s32             
79     conv2d_29_output                  12288/12288     activations/**default**   s8                    
80     conv2d_29_pad_before_output       19200/19200     activations/**default**   s8                    
81     conv2d_29_scratch0                7105/7105       activations/**default**   s8                    
82     conv2d_29_weights                 1728/1728       weights/weights           const s8              
83     conv2d_2_bias                     8/32            weights/weights           const s32             
84     conv2d_2_output                   32768/32768     activations/**default**   s8                    
85     conv2d_2_scratch0                 144/144         activations/**default**   s8                    
86     conv2d_2_weights                  128/128         weights/weights           const s8              
87     conv2d_30_bias                    32/128          weights/weights           const s32             
88     conv2d_30_output                  2048/2048       activations/**default**   s8                    
89     conv2d_30_scratch0                1088/1088       activations/**default**   s8                    
90     conv2d_30_weights                 6144/6144       weights/weights           const s8              
91     conv2d_32_bias                    192/768         weights/weights           const s32             
92     conv2d_32_output                  12288/12288     activations/**default**   s8                    
93     conv2d_32_scratch0                2048/2048       activations/**default**   s8                    
94     conv2d_32_weights                 6144/6144       weights/weights           const s8              
95     conv2d_33_bias                    192/768         weights/weights           const s32             
96     conv2d_33_output                  12288/12288     activations/**default**   s8                    
97     conv2d_33_pad_before_output       19200/19200     activations/**default**   s8                    
98     conv2d_33_scratch0                7105/7105       activations/**default**   s8                    
99     conv2d_33_weights                 1728/1728       weights/weights           const s8              
100    conv2d_34_bias                    32/128          weights/weights           const s32             
101    conv2d_34_output                  2048/2048       activations/**default**   s8                    
102    conv2d_34_scratch0                1088/1088       activations/**default**   s8                    
103    conv2d_34_weights                 6144/6144       weights/weights           const s8              
104    conv2d_36_bias                    192/768         weights/weights           const s32             
105    conv2d_36_output                  12288/12288     activations/**default**   s8                    
106    conv2d_36_scratch0                2048/2048       activations/**default**   s8                    
107    conv2d_36_weights                 6144/6144       weights/weights           const s8              
108    conv2d_37_bias                    192/768         weights/weights           const s32             
109    conv2d_37_output                  12288/12288     activations/**default**   s8                    
110    conv2d_37_pad_before_output       19200/19200     activations/**default**   s8                    
111    conv2d_37_scratch0                7105/7105       activations/**default**   s8                    
112    conv2d_37_weights                 1728/1728       weights/weights           const s8              
113    conv2d_38_bias                    40/160          weights/weights           const s32             
114    conv2d_38_output                  2560/2560       activations/**default**   s8                    
115    conv2d_38_scratch0                1168/1168       activations/**default**   s8                    
116    conv2d_38_weights                 7680/7680       weights/weights           const s8              
117    conv2d_39_bias                    240/960         weights/weights           const s32             
118    conv2d_39_output                  15360/15360     activations/**default**   s8                    
119    conv2d_39_scratch0                2560/2560       activations/**default**   s8                    
120    conv2d_39_weights                 9600/9600       weights/weights           const s8              
121    conv2d_3_bias                     48/192          weights/weights           const s32             
122    conv2d_3_output                   196608/196608   activations/**default**   s8                    
123    conv2d_3_scratch0                 512/512         activations/**default**   s8                    
124    conv2d_3_weights                  384/384         weights/weights           const s8              
125    conv2d_40_bias                    240/960         weights/weights           const s32             
126    conv2d_40_output                  15360/15360     activations/**default**   s8                    
127    conv2d_40_pad_before_output       24000/24000     activations/**default**   s8                    
128    conv2d_40_scratch0                8881/8881       activations/**default**   s8                    
129    conv2d_40_weights                 2160/2160       weights/weights           const s8              
130    conv2d_41_bias                    40/160          weights/weights           const s32             
131    conv2d_41_output                  2560/2560       activations/**default**   s8                    
132    conv2d_41_scratch0                1360/1360       activations/**default**   s8                    
133    conv2d_41_weights                 9600/9600       weights/weights           const s8              
134    conv2d_43_bias                    240/960         weights/weights           const s32             
135    conv2d_43_output                  15360/15360     activations/**default**   s8                    
136    conv2d_43_scratch0                2560/2560       activations/**default**   s8                    
137    conv2d_43_weights                 9600/9600       weights/weights           const s8              
138    conv2d_44_bias                    240/960         weights/weights           const s32             
139    conv2d_44_output                  15360/15360     activations/**default**   s8                    
140    conv2d_44_pad_before_output       24000/24000     activations/**default**   s8                    
141    conv2d_44_scratch0                8881/8881       activations/**default**   s8                    
142    conv2d_44_weights                 2160/2160       weights/weights           const s8              
143    conv2d_45_bias                    40/160          weights/weights           const s32             
144    conv2d_45_output                  2560/2560       activations/**default**   s8                    
145    conv2d_45_scratch0                1360/1360       activations/**default**   s8                    
146    conv2d_45_weights                 9600/9600       weights/weights           const s8              
147    conv2d_47_bias                    240/960         weights/weights           const s32             
148    conv2d_47_output                  15360/15360     activations/**default**   s8                    
149    conv2d_47_scratch0                2560/2560       activations/**default**   s8                    
150    conv2d_47_weights                 9600/9600       weights/weights           const s8              
151    conv2d_48_bias                    240/960         weights/weights           const s32             
152    conv2d_48_output                  3840/3840       activations/**default**   s8                    
153    conv2d_48_pad_before_output       24000/24000     activations/**default**   s8                    
154    conv2d_48_scratch0                8881/8881       activations/**default**   s8                    
155    conv2d_48_weights                 2160/2160       weights/weights           const s8              
156    conv2d_49_bias                    72/288          weights/weights           const s32             
157    conv2d_49_output                  1152/1152       activations/**default**   s8                    
158    conv2d_49_scratch0                1680/1680       activations/**default**   s8                    
159    conv2d_49_weights                 17280/17280     weights/weights           const s8              
160    conv2d_4_bias                     48/192          weights/weights           const s32             
161    conv2d_4_output                   49152/49152     activations/**default**   s8                    
162    conv2d_4_pad_before_output        209088/209088   activations/**default**   s8                    
163    conv2d_4_scratch0                 1777/1777       activations/**default**   s8                    
164    conv2d_4_weights                  432/432         weights/weights           const s8              
165    conv2d_5_bias                     16/64           weights/weights           const s32             
166    conv2d_5_output                   16384/16384     activations/**default**   s8                    
167    conv2d_5_scratch0                 352/352         activations/**default**   s8                    
168    conv2d_5_weights                  768/768         weights/weights           const s8              
169    conv2d_6_bias                     96/384          weights/weights           const s32             
170    conv2d_6_output                   98304/98304     activations/**default**   s8                    
171    conv2d_6_scratch0                 1024/1024       activations/**default**   s8                    
172    conv2d_6_weights                  1536/1536       weights/weights           const s8              
173    conv2d_7_bias                     96/384          weights/weights           const s32             
174    conv2d_7_output                   98304/98304     activations/**default**   s8                    
175    conv2d_7_pad_before_output        110976/110976   activations/**default**   s8                    
176    conv2d_7_scratch0                 3553/3553       activations/**default**   s8                    
177    conv2d_7_weights                  864/864         weights/weights           const s8              
178    conv2d_8_bias                     16/64           weights/weights           const s32             
179    conv2d_8_output                   16384/16384     activations/**default**   s8                    
180    conv2d_8_scratch0                 544/544         activations/**default**   s8                    
181    conv2d_8_weights                  1536/1536       weights/weights           const s8              
182    eltwise_16_output                 4096/4096       activations/**default**   s8                    
183    eltwise_20_output                 4096/4096       activations/**default**   s8                    
184    eltwise_27_output                 2048/2048       activations/**default**   s8                    
185    eltwise_31_output                 2048/2048       activations/**default**   s8                    
186    eltwise_35_output                 2048/2048       activations/**default**   s8                    
187    eltwise_42_output                 2560/2560       activations/**default**   s8                    
188    eltwise_46_output                 2560/2560       activations/**default**   s8                    
189    eltwise_9_output                  16384/16384     activations/**default**   s8                    
190    gemm_51_bias                      5/20            weights/weights           const s32             
191    gemm_51_output                    5/5             activations/**default**   s8                    
192    gemm_51_scratch0                  97/194          activations/**default**   s16                   
193    gemm_51_weights                   360/360         weights/weights           const s8              
194    nl_52_output                      5/5             activations/**default**   s8          /output   
195    pool_50_output                    72/72           activations/**default**   s8                    
196    serving_default_input_30_output   49152/49153     activations/**default**   s8          /input    
------ --------------------------------- --------------- ------------------------- ----------- --------- 

C-Layers (67)
------ ---------------------- ---- --------------- --------- ------- ------------------------------------ ------------------------- 
c_id   name (*_layer)         id   layer_type      macc      rom     tensors                              shape (array id)          
------ ---------------------- ---- --------------- --------- ------- ------------------------------------ ------------------------- 
0      conv2d_0               0    Conv2D          1769488   496     I: serving_default_input_30_output   int8(1x128x128x3) (196)   
                                                                     S: conv2d_0_scratch0                                           
                                                                     W: conv2d_0_weights                  int8(16x3x3x3) (3)        
                                                                     W: conv2d_0_bias                     int32(16) (0)             
                                                                     O: conv2d_0_output                   int8(1x64x64x16) (1)      
------ ---------------------- ---- --------------- --------- ------- ------------------------------------ ------------------------- 
1      conv2d_1_pad_before    1    Pad             0         0       I: conv2d_0_output                   int8(1x64x64x16) (1)      
                                                                     O: conv2d_1_pad_before_output        int8(1x66x66x16) (45)     
------ ---------------------- ---- --------------- --------- ------- ------------------------------------ ------------------------- 
2      conv2d_1               1    Conv2D          589840    208     I: conv2d_1_pad_before_output        int8(1x66x66x16) (45)     
                                                                     S: conv2d_1_scratch0                                           
                                                                     W: conv2d_1_weights                  int8(1x3x3x16) (47)       
                                                                     W: conv2d_1_bias                     int32(16) (43)            
                                                                     O: conv2d_1_output                   int8(1x64x64x16) (44)     
------ ---------------------- ---- --------------- --------- ------- ------------------------------------ ------------------------- 
3      conv2d_2               2    Conv2D          524296    160     I: conv2d_1_output                   int8(1x64x64x16) (44)     
                                                                     S: conv2d_2_scratch0                                           
                                                                     W: conv2d_2_weights                  int8(8x1x1x16) (86)       
                                                                     W: conv2d_2_bias                     int32(8) (83)             
                                                                     O: conv2d_2_output                   int8(1x64x64x8) (84)      
------ ---------------------- ---- --------------- --------- ------- ------------------------------------ ------------------------- 
4      conv2d_3               3    Conv2D          1572912   576     I: conv2d_2_output                   int8(1x64x64x8) (84)      
                                                                     S: conv2d_3_scratch0                                           
                                                                     W: conv2d_3_weights                  int8(48x1x1x8) (124)      
                                                                     W: conv2d_3_bias                     int32(48) (121)           
                                                                     O: conv2d_3_output                   int8(1x64x64x48) (122)    
------ ---------------------- ---- --------------- --------- ------- ------------------------------------ ------------------------- 
5      conv2d_4_pad_before    4    Pad             0         0       I: conv2d_3_output                   int8(1x64x64x48) (122)    
                                                                     O: conv2d_4_pad_before_output        int8(1x66x66x48) (162)    
------ ---------------------- ---- --------------- --------- ------- ------------------------------------ ------------------------- 
6      conv2d_4               4    Conv2D          442416    624     I: conv2d_4_pad_before_output        int8(1x66x66x48) (162)    
                                                                     S: conv2d_4_scratch0                                           
                                                                     W: conv2d_4_weights                  int8(1x3x3x48) (164)      
                                                                     W: conv2d_4_bias                     int32(48) (160)           
                                                                     O: conv2d_4_output                   int8(1x32x32x48) (161)    
------ ---------------------- ---- --------------- --------- ------- ------------------------------------ ------------------------- 
7      conv2d_5               5    Conv2D          786448    832     I: conv2d_4_output                   int8(1x32x32x48) (161)    
                                                                     S: conv2d_5_scratch0                                           
                                                                     W: conv2d_5_weights                  int8(16x1x1x48) (168)     
                                                                     W: conv2d_5_bias                     int32(16) (165)           
                                                                     O: conv2d_5_output                   int8(1x32x32x16) (166)    
------ ---------------------- ---- --------------- --------- ------- ------------------------------------ ------------------------- 
8      conv2d_6               6    Conv2D          1572960   1920    I: conv2d_5_output                   int8(1x32x32x16) (166)    
                                                                     S: conv2d_6_scratch0                                           
                                                                     W: conv2d_6_weights                  int8(96x1x1x16) (172)     
                                                                     W: conv2d_6_bias                     int32(96) (169)           
                                                                     O: conv2d_6_output                   int8(1x32x32x96) (170)    
------ ---------------------- ---- --------------- --------- ------- ------------------------------------ ------------------------- 
9      conv2d_7_pad_before    7    Pad             0         0       I: conv2d_6_output                   int8(1x32x32x96) (170)    
                                                                     O: conv2d_7_pad_before_output        int8(1x34x34x96) (175)    
------ ---------------------- ---- --------------- --------- ------- ------------------------------------ ------------------------- 
10     conv2d_7               7    Conv2D          884832    1248    I: conv2d_7_pad_before_output        int8(1x34x34x96) (175)    
                                                                     S: conv2d_7_scratch0                                           
                                                                     W: conv2d_7_weights                  int8(1x3x3x96) (177)      
                                                                     W: conv2d_7_bias                     int32(96) (173)           
                                                                     O: conv2d_7_output                   int8(1x32x32x96) (174)    
------ ---------------------- ---- --------------- --------- ------- ------------------------------------ ------------------------- 
11     conv2d_8               8    Conv2D          1572880   1600    I: conv2d_7_output                   int8(1x32x32x96) (174)    
                                                                     S: conv2d_8_scratch0                                           
                                                                     W: conv2d_8_weights                  int8(16x1x1x96) (181)     
                                                                     W: conv2d_8_bias                     int32(16) (178)           
                                                                     O: conv2d_8_output                   int8(1x32x32x16) (179)    
------ ---------------------- ---- --------------- --------- ------- ------------------------------------ ------------------------- 
12     eltwise_9              9    Eltwise/add     16384     0       I: conv2d_5_output                   int8(1x32x32x16) (166)    
                                                                     I: conv2d_8_output                   int8(1x32x32x16) (166)    
                                                                     O: eltwise_9_output                  int8(1x32x32x16) (189)    
------ ---------------------- ---- --------------- --------- ------- ------------------------------------ ------------------------- 
13     conv2d_10              10   Conv2D          1572960   1920    I: eltwise_9_output                  int8(1x32x32x16) (189)    
                                                                     S: conv2d_10_scratch0                                          
                                                                     W: conv2d_10_weights                 int8(96x1x1x16) (7)       
                                                                     W: conv2d_10_bias                    int32(96) (4)             
                                                                     O: conv2d_10_output                  int8(1x32x32x96) (5)      
------ ---------------------- ---- --------------- --------- ------- ------------------------------------ ------------------------- 
14     conv2d_11_pad_before   11   Pad             0         0       I: conv2d_10_output                  int8(1x32x32x96) (5)      
                                                                     O: conv2d_11_pad_before_output       int8(1x34x34x96) (10)     
------ ---------------------- ---- --------------- --------- ------- ------------------------------------ ------------------------- 
15     conv2d_11              11   Conv2D          221280    1248    I: conv2d_11_pad_before_output       int8(1x34x34x96) (10)     
                                                                     S: conv2d_11_scratch0                                          
                                                                     W: conv2d_11_weights                 int8(1x3x3x96) (12)       
                                                                     W: conv2d_11_bias                    int32(96) (8)             
                                                                     O: conv2d_11_output                  int8(1x16x16x96) (9)      
------ ---------------------- ---- --------------- --------- ------- ------------------------------------ ------------------------- 
16     conv2d_12              12   Conv2D          393232    1600    I: conv2d_11_output                  int8(1x16x16x96) (9)      
                                                                     S: conv2d_12_scratch0                                          
                                                                     W: conv2d_12_weights                 int8(16x1x1x96) (16)      
                                                                     W: conv2d_12_bias                    int32(16) (13)            
                                                                     O: conv2d_12_output                  int8(1x16x16x16) (14)     
------ ---------------------- ---- --------------- --------- ------- ------------------------------------ ------------------------- 
17     conv2d_13              13   Conv2D          393312    1920    I: conv2d_12_output                  int8(1x16x16x16) (14)     
                                                                     S: conv2d_13_scratch0                                          
                                                                     W: conv2d_13_weights                 int8(96x1x1x16) (20)      
                                                                     W: conv2d_13_bias                    int32(96) (17)            
                                                                     O: conv2d_13_output                  int8(1x16x16x96) (18)     
------ ---------------------- ---- --------------- --------- ------- ------------------------------------ ------------------------- 
18     conv2d_14_pad_before   14   Pad             0         0       I: conv2d_13_output                  int8(1x16x16x96) (18)     
                                                                     O: conv2d_14_pad_before_output       int8(1x18x18x96) (23)     
------ ---------------------- ---- --------------- --------- ------- ------------------------------------ ------------------------- 
19     conv2d_14              14   Conv2D          221280    1248    I: conv2d_14_pad_before_output       int8(1x18x18x96) (23)     
                                                                     S: conv2d_14_scratch0                                          
                                                                     W: conv2d_14_weights                 int8(1x3x3x96) (25)       
                                                                     W: conv2d_14_bias                    int32(96) (21)            
                                                                     O: conv2d_14_output                  int8(1x16x16x96) (22)     
------ ---------------------- ---- --------------- --------- ------- ------------------------------------ ------------------------- 
20     conv2d_15              15   Conv2D          393232    1600    I: conv2d_14_output                  int8(1x16x16x96) (22)     
                                                                     S: conv2d_15_scratch0                                          
                                                                     W: conv2d_15_weights                 int8(16x1x1x96) (29)      
                                                                     W: conv2d_15_bias                    int32(16) (26)            
                                                                     O: conv2d_15_output                  int8(1x16x16x16) (27)     
------ ---------------------- ---- --------------- --------- ------- ------------------------------------ ------------------------- 
21     eltwise_16             16   Eltwise/add     4096      0       I: conv2d_12_output                  int8(1x16x16x16) (14)     
                                                                     I: conv2d_15_output                  int8(1x16x16x16) (14)     
                                                                     O: eltwise_16_output                 int8(1x16x16x16) (182)    
------ ---------------------- ---- --------------- --------- ------- ------------------------------------ ------------------------- 
22     conv2d_17              17   Conv2D          393312    1920    I: eltwise_16_output                 int8(1x16x16x16) (182)    
                                                                     S: conv2d_17_scratch0                                          
                                                                     W: conv2d_17_weights                 int8(96x1x1x16) (33)      
                                                                     W: conv2d_17_bias                    int32(96) (30)            
                                                                     O: conv2d_17_output                  int8(1x16x16x96) (31)     
------ ---------------------- ---- --------------- --------- ------- ------------------------------------ ------------------------- 
23     conv2d_18_pad_before   18   Pad             0         0       I: conv2d_17_output                  int8(1x16x16x96) (31)     
                                                                     O: conv2d_18_pad_before_output       int8(1x18x18x96) (36)     
------ ---------------------- ---- --------------- --------- ------- ------------------------------------ ------------------------- 
24     conv2d_18              18   Conv2D          221280    1248    I: conv2d_18_pad_before_output       int8(1x18x18x96) (36)     
                                                                     S: conv2d_18_scratch0                                          
                                                                     W: conv2d_18_weights                 int8(1x3x3x96) (38)       
                                                                     W: conv2d_18_bias                    int32(96) (34)            
                                                                     O: conv2d_18_output                  int8(1x16x16x96) (35)     
------ ---------------------- ---- --------------- --------- ------- ------------------------------------ ------------------------- 
25     conv2d_19              19   Conv2D          393232    1600    I: conv2d_18_output                  int8(1x16x16x96) (35)     
                                                                     S: conv2d_19_scratch0                                          
                                                                     W: conv2d_19_weights                 int8(16x1x1x96) (42)      
                                                                     W: conv2d_19_bias                    int32(16) (39)            
                                                                     O: conv2d_19_output                  int8(1x16x16x16) (40)     
------ ---------------------- ---- --------------- --------- ------- ------------------------------------ ------------------------- 
26     eltwise_20             20   Eltwise/add     4096      0       I: eltwise_16_output                 int8(1x16x16x16) (182)    
                                                                     I: conv2d_19_output                  int8(1x16x16x16) (182)    
                                                                     O: eltwise_20_output                 int8(1x16x16x16) (183)    
------ ---------------------- ---- --------------- --------- ------- ------------------------------------ ------------------------- 
27     conv2d_21              21   Conv2D          393312    1920    I: eltwise_20_output                 int8(1x16x16x16) (183)    
                                                                     S: conv2d_21_scratch0                                          
                                                                     W: conv2d_21_weights                 int8(96x1x1x16) (51)      
                                                                     W: conv2d_21_bias                    int32(96) (48)            
                                                                     O: conv2d_21_output                  int8(1x16x16x96) (49)     
------ ---------------------- ---- --------------- --------- ------- ------------------------------------ ------------------------- 
28     conv2d_22_pad_before   22   Pad             0         0       I: conv2d_21_output                  int8(1x16x16x96) (49)     
                                                                     O: conv2d_22_pad_before_output       int8(1x18x18x96) (54)     
------ ---------------------- ---- --------------- --------- ------- ------------------------------------ ------------------------- 
29     conv2d_22              22   Conv2D          55392     1248    I: conv2d_22_pad_before_output       int8(1x18x18x96) (54)     
                                                                     S: conv2d_22_scratch0                                          
                                                                     W: conv2d_22_weights                 int8(1x3x3x96) (56)       
                                                                     W: conv2d_22_bias                    int32(96) (52)            
                                                                     O: conv2d_22_output                  int8(1x8x8x96) (53)       
------ ---------------------- ---- --------------- --------- ------- ------------------------------------ ------------------------- 
30     conv2d_23              23   Conv2D          196640    3200    I: conv2d_22_output                  int8(1x8x8x96) (53)       
                                                                     S: conv2d_23_scratch0                                          
                                                                     W: conv2d_23_weights                 int8(32x1x1x96) (60)      
                                                                     W: conv2d_23_bias                    int32(32) (57)            
                                                                     O: conv2d_23_output                  int8(1x8x8x32) (58)       
------ ---------------------- ---- --------------- --------- ------- ------------------------------------ ------------------------- 
31     conv2d_24              24   Conv2D          393408    6912    I: conv2d_23_output                  int8(1x8x8x32) (58)       
                                                                     S: conv2d_24_scratch0                                          
                                                                     W: conv2d_24_weights                 int8(192x1x1x32) (64)     
                                                                     W: conv2d_24_bias                    int32(192) (61)           
                                                                     O: conv2d_24_output                  int8(1x8x8x192) (62)      
------ ---------------------- ---- --------------- --------- ------- ------------------------------------ ------------------------- 
32     conv2d_25_pad_before   25   Pad             0         0       I: conv2d_24_output                  int8(1x8x8x192) (62)      
                                                                     O: conv2d_25_pad_before_output       int8(1x10x10x192) (67)    
------ ---------------------- ---- --------------- --------- ------- ------------------------------------ ------------------------- 
33     conv2d_25              25   Conv2D          110784    2496    I: conv2d_25_pad_before_output       int8(1x10x10x192) (67)    
                                                                     S: conv2d_25_scratch0                                          
                                                                     W: conv2d_25_weights                 int8(1x3x3x192) (69)      
                                                                     W: conv2d_25_bias                    int32(192) (65)           
                                                                     O: conv2d_25_output                  int8(1x8x8x192) (66)      
------ ---------------------- ---- --------------- --------- ------- ------------------------------------ ------------------------- 
34     conv2d_26              26   Conv2D          393248    6272    I: conv2d_25_output                  int8(1x8x8x192) (66)      
                                                                     S: conv2d_26_scratch0                                          
                                                                     W: conv2d_26_weights                 int8(32x1x1x192) (73)     
                                                                     W: conv2d_26_bias                    int32(32) (70)            
                                                                     O: conv2d_26_output                  int8(1x8x8x32) (71)       
------ ---------------------- ---- --------------- --------- ------- ------------------------------------ ------------------------- 
35     eltwise_27             27   Eltwise/add     2048      0       I: conv2d_23_output                  int8(1x8x8x32) (58)       
                                                                     I: conv2d_26_output                  int8(1x8x8x32) (58)       
                                                                     O: eltwise_27_output                 int8(1x8x8x32) (184)      
------ ---------------------- ---- --------------- --------- ------- ------------------------------------ ------------------------- 
36     conv2d_28              28   Conv2D          393408    6912    I: eltwise_27_output                 int8(1x8x8x32) (184)      
                                                                     S: conv2d_28_scratch0                                          
                                                                     W: conv2d_28_weights                 int8(192x1x1x32) (77)     
                                                                     W: conv2d_28_bias                    int32(192) (74)           
                                                                     O: conv2d_28_output                  int8(1x8x8x192) (75)      
------ ---------------------- ---- --------------- --------- ------- ------------------------------------ ------------------------- 
37     conv2d_29_pad_before   29   Pad             0         0       I: conv2d_28_output                  int8(1x8x8x192) (75)      
                                                                     O: conv2d_29_pad_before_output       int8(1x10x10x192) (80)    
------ ---------------------- ---- --------------- --------- ------- ------------------------------------ ------------------------- 
38     conv2d_29              29   Conv2D          110784    2496    I: conv2d_29_pad_before_output       int8(1x10x10x192) (80)    
                                                                     S: conv2d_29_scratch0                                          
                                                                     W: conv2d_29_weights                 int8(1x3x3x192) (82)      
                                                                     W: conv2d_29_bias                    int32(192) (78)           
                                                                     O: conv2d_29_output                  int8(1x8x8x192) (79)      
------ ---------------------- ---- --------------- --------- ------- ------------------------------------ ------------------------- 
39     conv2d_30              30   Conv2D          393248    6272    I: conv2d_29_output                  int8(1x8x8x192) (79)      
                                                                     S: conv2d_30_scratch0                                          
                                                                     W: conv2d_30_weights                 int8(32x1x1x192) (90)     
                                                                     W: conv2d_30_bias                    int32(32) (87)            
                                                                     O: conv2d_30_output                  int8(1x8x8x32) (88)       
------ ---------------------- ---- --------------- --------- ------- ------------------------------------ ------------------------- 
40     eltwise_31             31   Eltwise/add     2048      0       I: eltwise_27_output                 int8(1x8x8x32) (184)      
                                                                     I: conv2d_30_output                  int8(1x8x8x32) (184)      
                                                                     O: eltwise_31_output                 int8(1x8x8x32) (185)      
------ ---------------------- ---- --------------- --------- ------- ------------------------------------ ------------------------- 
41     conv2d_32              32   Conv2D          393408    6912    I: eltwise_31_output                 int8(1x8x8x32) (185)      
                                                                     S: conv2d_32_scratch0                                          
                                                                     W: conv2d_32_weights                 int8(192x1x1x32) (94)     
                                                                     W: conv2d_32_bias                    int32(192) (91)           
                                                                     O: conv2d_32_output                  int8(1x8x8x192) (92)      
------ ---------------------- ---- --------------- --------- ------- ------------------------------------ ------------------------- 
42     conv2d_33_pad_before   33   Pad             0         0       I: conv2d_32_output                  int8(1x8x8x192) (92)      
                                                                     O: conv2d_33_pad_before_output       int8(1x10x10x192) (97)    
------ ---------------------- ---- --------------- --------- ------- ------------------------------------ ------------------------- 
43     conv2d_33              33   Conv2D          110784    2496    I: conv2d_33_pad_before_output       int8(1x10x10x192) (97)    
                                                                     S: conv2d_33_scratch0                                          
                                                                     W: conv2d_33_weights                 int8(1x3x3x192) (99)      
                                                                     W: conv2d_33_bias                    int32(192) (95)           
                                                                     O: conv2d_33_output                  int8(1x8x8x192) (96)      
------ ---------------------- ---- --------------- --------- ------- ------------------------------------ ------------------------- 
44     conv2d_34              34   Conv2D          393248    6272    I: conv2d_33_output                  int8(1x8x8x192) (96)      
                                                                     S: conv2d_34_scratch0                                          
                                                                     W: conv2d_34_weights                 int8(32x1x1x192) (103)    
                                                                     W: conv2d_34_bias                    int32(32) (100)           
                                                                     O: conv2d_34_output                  int8(1x8x8x32) (101)      
------ ---------------------- ---- --------------- --------- ------- ------------------------------------ ------------------------- 
45     eltwise_35             35   Eltwise/add     2048      0       I: eltwise_31_output                 int8(1x8x8x32) (185)      
                                                                     I: conv2d_34_output                  int8(1x8x8x32) (185)      
                                                                     O: eltwise_35_output                 int8(1x8x8x32) (186)      
------ ---------------------- ---- --------------- --------- ------- ------------------------------------ ------------------------- 
46     conv2d_36              36   Conv2D          393408    6912    I: eltwise_35_output                 int8(1x8x8x32) (186)      
                                                                     S: conv2d_36_scratch0                                          
                                                                     W: conv2d_36_weights                 int8(192x1x1x32) (107)    
                                                                     W: conv2d_36_bias                    int32(192) (104)          
                                                                     O: conv2d_36_output                  int8(1x8x8x192) (105)     
------ ---------------------- ---- --------------- --------- ------- ------------------------------------ ------------------------- 
47     conv2d_37_pad_before   37   Pad             0         0       I: conv2d_36_output                  int8(1x8x8x192) (105)     
                                                                     O: conv2d_37_pad_before_output       int8(1x10x10x192) (110)   
------ ---------------------- ---- --------------- --------- ------- ------------------------------------ ------------------------- 
48     conv2d_37              37   Conv2D          110784    2496    I: conv2d_37_pad_before_output       int8(1x10x10x192) (110)   
                                                                     S: conv2d_37_scratch0                                          
                                                                     W: conv2d_37_weights                 int8(1x3x3x192) (112)     
                                                                     W: conv2d_37_bias                    int32(192) (108)          
                                                                     O: conv2d_37_output                  int8(1x8x8x192) (109)     
------ ---------------------- ---- --------------- --------- ------- ------------------------------------ ------------------------- 
49     conv2d_38              38   Conv2D          491560    7840    I: conv2d_37_output                  int8(1x8x8x192) (109)     
                                                                     S: conv2d_38_scratch0                                          
                                                                     W: conv2d_38_weights                 int8(40x1x1x192) (116)    
                                                                     W: conv2d_38_bias                    int32(40) (113)           
                                                                     O: conv2d_38_output                  int8(1x8x8x40) (114)      
------ ---------------------- ---- --------------- --------- ------- ------------------------------------ ------------------------- 
50     conv2d_39              39   Conv2D          614640    10560   I: conv2d_38_output                  int8(1x8x8x40) (114)      
                                                                     S: conv2d_39_scratch0                                          
                                                                     W: conv2d_39_weights                 int8(240x1x1x40) (120)    
                                                                     W: conv2d_39_bias                    int32(240) (117)          
                                                                     O: conv2d_39_output                  int8(1x8x8x240) (118)     
------ ---------------------- ---- --------------- --------- ------- ------------------------------------ ------------------------- 
51     conv2d_40_pad_before   40   Pad             0         0       I: conv2d_39_output                  int8(1x8x8x240) (118)     
                                                                     O: conv2d_40_pad_before_output       int8(1x10x10x240) (127)   
------ ---------------------- ---- --------------- --------- ------- ------------------------------------ ------------------------- 
52     conv2d_40              40   Conv2D          138480    3120    I: conv2d_40_pad_before_output       int8(1x10x10x240) (127)   
                                                                     S: conv2d_40_scratch0                                          
                                                                     W: conv2d_40_weights                 int8(1x3x3x240) (129)     
                                                                     W: conv2d_40_bias                    int32(240) (125)          
                                                                     O: conv2d_40_output                  int8(1x8x8x240) (126)     
------ ---------------------- ---- --------------- --------- ------- ------------------------------------ ------------------------- 
53     conv2d_41              41   Conv2D          614440    9760    I: conv2d_40_output                  int8(1x8x8x240) (126)     
                                                                     S: conv2d_41_scratch0                                          
                                                                     W: conv2d_41_weights                 int8(40x1x1x240) (133)    
                                                                     W: conv2d_41_bias                    int32(40) (130)           
                                                                     O: conv2d_41_output                  int8(1x8x8x40) (131)      
------ ---------------------- ---- --------------- --------- ------- ------------------------------------ ------------------------- 
54     eltwise_42             42   Eltwise/add     2560      0       I: conv2d_38_output                  int8(1x8x8x40) (114)      
                                                                     I: conv2d_41_output                  int8(1x8x8x40) (114)      
                                                                     O: eltwise_42_output                 int8(1x8x8x40) (187)      
------ ---------------------- ---- --------------- --------- ------- ------------------------------------ ------------------------- 
55     conv2d_43              43   Conv2D          614640    10560   I: eltwise_42_output                 int8(1x8x8x40) (187)      
                                                                     S: conv2d_43_scratch0                                          
                                                                     W: conv2d_43_weights                 int8(240x1x1x40) (137)    
                                                                     W: conv2d_43_bias                    int32(240) (134)          
                                                                     O: conv2d_43_output                  int8(1x8x8x240) (135)     
------ ---------------------- ---- --------------- --------- ------- ------------------------------------ ------------------------- 
56     conv2d_44_pad_before   44   Pad             0         0       I: conv2d_43_output                  int8(1x8x8x240) (135)     
                                                                     O: conv2d_44_pad_before_output       int8(1x10x10x240) (140)   
------ ---------------------- ---- --------------- --------- ------- ------------------------------------ ------------------------- 
57     conv2d_44              44   Conv2D          138480    3120    I: conv2d_44_pad_before_output       int8(1x10x10x240) (140)   
                                                                     S: conv2d_44_scratch0                                          
                                                                     W: conv2d_44_weights                 int8(1x3x3x240) (142)     
                                                                     W: conv2d_44_bias                    int32(240) (138)          
                                                                     O: conv2d_44_output                  int8(1x8x8x240) (139)     
------ ---------------------- ---- --------------- --------- ------- ------------------------------------ ------------------------- 
58     conv2d_45              45   Conv2D          614440    9760    I: conv2d_44_output                  int8(1x8x8x240) (139)     
                                                                     S: conv2d_45_scratch0                                          
                                                                     W: conv2d_45_weights                 int8(40x1x1x240) (146)    
                                                                     W: conv2d_45_bias                    int32(40) (143)           
                                                                     O: conv2d_45_output                  int8(1x8x8x40) (144)      
------ ---------------------- ---- --------------- --------- ------- ------------------------------------ ------------------------- 
59     eltwise_46             46   Eltwise/add     2560      0       I: eltwise_42_output                 int8(1x8x8x40) (187)      
                                                                     I: conv2d_45_output                  int8(1x8x8x40) (187)      
                                                                     O: eltwise_46_output                 int8(1x8x8x40) (188)      
------ ---------------------- ---- --------------- --------- ------- ------------------------------------ ------------------------- 
60     conv2d_47              47   Conv2D          614640    10560   I: eltwise_46_output                 int8(1x8x8x40) (188)      
                                                                     S: conv2d_47_scratch0                                          
                                                                     W: conv2d_47_weights                 int8(240x1x1x40) (150)    
                                                                     W: conv2d_47_bias                    int32(240) (147)          
                                                                     O: conv2d_47_output                  int8(1x8x8x240) (148)     
------ ---------------------- ---- --------------- --------- ------- ------------------------------------ ------------------------- 
61     conv2d_48_pad_before   48   Pad             0         0       I: conv2d_47_output                  int8(1x8x8x240) (148)     
                                                                     O: conv2d_48_pad_before_output       int8(1x10x10x240) (153)   
------ ---------------------- ---- --------------- --------- ------- ------------------------------------ ------------------------- 
62     conv2d_48              48   Conv2D          34800     3120    I: conv2d_48_pad_before_output       int8(1x10x10x240) (153)   
                                                                     S: conv2d_48_scratch0                                          
                                                                     W: conv2d_48_weights                 int8(1x3x3x240) (155)     
                                                                     W: conv2d_48_bias                    int32(240) (151)          
                                                                     O: conv2d_48_output                  int8(1x4x4x240) (152)     
------ ---------------------- ---- --------------- --------- ------- ------------------------------------ ------------------------- 
63     conv2d_49              49   Conv2D          276552    17568   I: conv2d_48_output                  int8(1x4x4x240) (152)     
                                                                     S: conv2d_49_scratch0                                          
                                                                     W: conv2d_49_weights                 int8(72x1x1x240) (159)    
                                                                     W: conv2d_49_bias                    int32(72) (156)           
                                                                     O: conv2d_49_output                  int8(1x4x4x72) (157)      
------ ---------------------- ---- --------------- --------- ------- ------------------------------------ ------------------------- 
64     pool_50                50   Pool            1152      0       I: conv2d_49_output                  int8(1x4x4x72) (157)      
                                                                     O: pool_50_output                    int8(1x1x1x72) (195)      
------ ---------------------- ---- --------------- --------- ------- ------------------------------------ ------------------------- 
65     gemm_51                51   Dense           365       380     I: pool_50_output                    int8(1x1x1x72) (195)      
                                                                     S: gemm_51_scratch0                                            
                                                                     W: gemm_51_weights                   int8(5x72) (193)          
                                                                     W: gemm_51_bias                      int32(5) (190)            
                                                                     O: gemm_51_output                    int8(1x5) (191)           
------ ---------------------- ---- --------------- --------- ------- ------------------------------------ ------------------------- 
66     nl_52                  52   Nonlinearity    5         0       I: gemm_51_output                    int8(1x5) (191)           
                                                                     O: nl_52_output                      int8(1x5) (194)           
------ ---------------------- ---- --------------- --------- ------- ------------------------------------ ------------------------- 



Number of operations per c-layer
------- ------ ---------------------------- ------------ ------------ 
c_id    m_id   name (type)                           #op         type 
------- ------ ---------------------------- ------------ ------------ 
0       0      conv2d_0 (Conv2D)               1,769,488   smul_s8_s8 
1       1      conv2d_1_pad_before (Pad)               0   smul_s8_s8 
2       1      conv2d_1 (Conv2D)                 589,840   smul_s8_s8 
3       2      conv2d_2 (Conv2D)                 524,296   smul_s8_s8 
4       3      conv2d_3 (Conv2D)               1,572,912   smul_s8_s8 
5       4      conv2d_4_pad_before (Pad)               0   smul_s8_s8 
6       4      conv2d_4 (Conv2D)                 442,416   smul_s8_s8 
7       5      conv2d_5 (Conv2D)                 786,448   smul_s8_s8 
8       6      conv2d_6 (Conv2D)               1,572,960   smul_s8_s8 
9       7      conv2d_7_pad_before (Pad)               0   smul_s8_s8 
10      7      conv2d_7 (Conv2D)                 884,832   smul_s8_s8 
11      8      conv2d_8 (Conv2D)               1,572,880   smul_s8_s8 
12      9      eltwise_9 (Eltwise/add)            16,384     op_s8_s8 
13      10     conv2d_10 (Conv2D)              1,572,960   smul_s8_s8 
14      11     conv2d_11_pad_before (Pad)              0   smul_s8_s8 
15      11     conv2d_11 (Conv2D)                221,280   smul_s8_s8 
16      12     conv2d_12 (Conv2D)                393,232   smul_s8_s8 
17      13     conv2d_13 (Conv2D)                393,312   smul_s8_s8 
18      14     conv2d_14_pad_before (Pad)              0   smul_s8_s8 
19      14     conv2d_14 (Conv2D)                221,280   smul_s8_s8 
20      15     conv2d_15 (Conv2D)                393,232   smul_s8_s8 
21      16     eltwise_16 (Eltwise/add)            4,096     op_s8_s8 
22      17     conv2d_17 (Conv2D)                393,312   smul_s8_s8 
23      18     conv2d_18_pad_before (Pad)              0   smul_s8_s8 
24      18     conv2d_18 (Conv2D)                221,280   smul_s8_s8 
25      19     conv2d_19 (Conv2D)                393,232   smul_s8_s8 
26      20     eltwise_20 (Eltwise/add)            4,096     op_s8_s8 
27      21     conv2d_21 (Conv2D)                393,312   smul_s8_s8 
28      22     conv2d_22_pad_before (Pad)              0   smul_s8_s8 
29      22     conv2d_22 (Conv2D)                 55,392   smul_s8_s8 
30      23     conv2d_23 (Conv2D)                196,640   smul_s8_s8 
31      24     conv2d_24 (Conv2D)                393,408   smul_s8_s8 
32      25     conv2d_25_pad_before (Pad)              0   smul_s8_s8 
33      25     conv2d_25 (Conv2D)                110,784   smul_s8_s8 
34      26     conv2d_26 (Conv2D)                393,248   smul_s8_s8 
35      27     eltwise_27 (Eltwise/add)            2,048     op_s8_s8 
36      28     conv2d_28 (Conv2D)                393,408   smul_s8_s8 
37      29     conv2d_29_pad_before (Pad)              0   smul_s8_s8 
38      29     conv2d_29 (Conv2D)                110,784   smul_s8_s8 
39      30     conv2d_30 (Conv2D)                393,248   smul_s8_s8 
40      31     eltwise_31 (Eltwise/add)            2,048     op_s8_s8 
41      32     conv2d_32 (Conv2D)                393,408   smul_s8_s8 
42      33     conv2d_33_pad_before (Pad)              0   smul_s8_s8 
43      33     conv2d_33 (Conv2D)                110,784   smul_s8_s8 
44      34     conv2d_34 (Conv2D)                393,248   smul_s8_s8 
45      35     eltwise_35 (Eltwise/add)            2,048     op_s8_s8 
46      36     conv2d_36 (Conv2D)                393,408   smul_s8_s8 
47      37     conv2d_37_pad_before (Pad)              0   smul_s8_s8 
48      37     conv2d_37 (Conv2D)                110,784   smul_s8_s8 
49      38     conv2d_38 (Conv2D)                491,560   smul_s8_s8 
50      39     conv2d_39 (Conv2D)                614,640   smul_s8_s8 
51      40     conv2d_40_pad_before (Pad)              0   smul_s8_s8 
52      40     conv2d_40 (Conv2D)                138,480   smul_s8_s8 
53      41     conv2d_41 (Conv2D)                614,440   smul_s8_s8 
54      42     eltwise_42 (Eltwise/add)            2,560     op_s8_s8 
55      43     conv2d_43 (Conv2D)                614,640   smul_s8_s8 
56      44     conv2d_44_pad_before (Pad)              0   smul_s8_s8 
57      44     conv2d_44 (Conv2D)                138,480   smul_s8_s8 
58      45     conv2d_45 (Conv2D)                614,440   smul_s8_s8 
59      46     eltwise_46 (Eltwise/add)            2,560     op_s8_s8 
60      47     conv2d_47 (Conv2D)                614,640   smul_s8_s8 
61      48     conv2d_48_pad_before (Pad)              0   smul_s8_s8 
62      48     conv2d_48 (Conv2D)                 34,800   smul_s8_s8 
63      49     conv2d_49 (Conv2D)                276,552   smul_s8_s8 
64      50     pool_50 (Pool)                      1,152   smul_s8_s8 
65      51     gemm_51 (Dense)                       365   smul_s8_s8 
66      52     nl_52 (Nonlinearity)                    5     op_s8_s8 
------- ------ ---------------------------- ------------ ------------ 
total                                         21,951,082 

Number of operation types
---------------- ------------ ----------- 
operation type              #           % 
---------------- ------------ ----------- 
smul_s8_s8         21,915,237       99.8% 
op_s8_s8               35,845        0.2% 

Complexity report (model)
------ -------------------------- ------------------------- ------------------------- ---------- 
m_id   name                       c_macc                    c_rom                     c_id       
------ -------------------------- ------------------------- ------------------------- ---------- 
0      serving_default_input_30   ||||||||||||||||   8.1%   |                  0.3%   [0]        
1      conv2d_1                   ||||||             2.7%   |                  0.1%   [1, 2]     
2      conv2d_2                   |||||              2.4%   |                  0.1%   [3]        
3      conv2d_3                   ||||||||||||||     7.2%   |                  0.3%   [4]        
4      conv2d_4                   ||||               2.0%   |                  0.4%   [5, 6]     
5      conv2d_5                   |||||||            3.6%   |                  0.5%   [7]        
6      conv2d_6                   ||||||||||||||     7.2%   ||                 1.1%   [8]        
7      conv2d_7                   ||||||||           4.0%   ||                 0.7%   [9, 10]    
8      conv2d_8                   ||||||||||||||     7.2%   ||                 0.9%   [11]       
9      eltwise_9                  |                  0.1%   |                  0.0%   [12]       
10     conv2d_10                  ||||||||||||||     7.2%   ||                 1.1%   [13]       
11     conv2d_11                  ||                 1.0%   ||                 0.7%   [14, 15]   
12     conv2d_12                  ||||               1.8%   ||                 0.9%   [16]       
13     conv2d_13                  ||||               1.8%   ||                 1.1%   [17]       
14     conv2d_14                  ||                 1.0%   ||                 0.7%   [18, 19]   
15     conv2d_15                  ||||               1.8%   ||                 0.9%   [20]       
16     eltwise_16                 |                  0.0%   |                  0.0%   [21]       
17     conv2d_17                  ||||               1.8%   ||                 1.1%   [22]       
18     conv2d_18                  ||                 1.0%   ||                 0.7%   [23, 24]   
19     conv2d_19                  ||||               1.8%   ||                 0.9%   [25]       
20     eltwise_20                 |                  0.0%   |                  0.0%   [26]       
21     conv2d_21                  ||||               1.8%   ||                 1.1%   [27]       
22     conv2d_22                  |                  0.3%   ||                 0.7%   [28, 29]   
23     conv2d_23                  ||                 0.9%   |||                1.9%   [30]       
24     conv2d_24                  ||||               1.8%   ||||||             4.0%   [31]       
25     conv2d_25                  |                  0.5%   |||                1.5%   [32, 33]   
26     conv2d_26                  ||||               1.8%   ||||||             3.7%   [34]       
27     eltwise_27                 |                  0.0%   |                  0.0%   [35]       
28     conv2d_28                  ||||               1.8%   ||||||             4.0%   [36]       
29     conv2d_29                  |                  0.5%   |||                1.5%   [37, 38]   
30     conv2d_30                  ||||               1.8%   ||||||             3.7%   [39]       
31     eltwise_31                 |                  0.0%   |                  0.0%   [40]       
32     conv2d_32                  ||||               1.8%   ||||||             4.0%   [41]       
33     conv2d_33                  |                  0.5%   |||                1.5%   [42, 43]   
34     conv2d_34                  ||||               1.8%   ||||||             3.7%   [44]       
35     eltwise_35                 |                  0.0%   |                  0.0%   [45]       
36     conv2d_36                  ||||               1.8%   ||||||             4.0%   [46]       
37     conv2d_37                  |                  0.5%   |||                1.5%   [47, 48]   
38     conv2d_38                  |||||              2.2%   |||||||            4.6%   [49]       
39     conv2d_39                  ||||||             2.8%   ||||||||||         6.2%   [50]       
40     conv2d_40                  ||                 0.6%   |||                1.8%   [51, 52]   
41     conv2d_41                  ||||||             2.8%   |||||||||          5.7%   [53]       
42     eltwise_42                 |                  0.0%   |                  0.0%   [54]       
43     conv2d_43                  ||||||             2.8%   ||||||||||         6.2%   [55]       
44     conv2d_44                  ||                 0.6%   |||                1.8%   [56, 57]   
45     conv2d_45                  ||||||             2.8%   |||||||||          5.7%   [58]       
46     eltwise_46                 |                  0.0%   |                  0.0%   [59]       
47     conv2d_47                  ||||||             2.8%   ||||||||||         6.2%   [60]       
48     conv2d_48                  |                  0.2%   |||                1.8%   [61, 62]   
49     conv2d_49                  |||                1.3%   ||||||||||||||||  10.3%   [63]       
50     pool_50                    |                  0.0%   |                  0.0%   [64]       
51     tfl_pseudo_qconst1         |                  0.0%   |                  0.2%   [65]       
52     nl_52                      |                  0.0%   |                  0.0%   [66]       
------ -------------------------- ------------------------- ------------------------- ---------- 
macc=21,951,082 weights=171,132 act=214,208 ram_io=0
 
 Requested memory size by section - "stm32f7" target
 ------------------------------ -------- --------- -------- --------- 
 module                             text    rodata     data       bss 
 ------------------------------ -------- --------- -------- --------- 
 od_model.o                        3,900    25,547   23,776       976 
 NetworkRuntime1020_CM7_GCC.a     23,980         0        0         0 
 od_model_data.o                      48        16       88         0 
 lib (toolchain)*                      0         0        0         0 
 ------------------------------ -------- --------- -------- --------- 
 RT total**                       27,928    25,563   23,864       976 
 ------------------------------ -------- --------- -------- --------- 
 weights                               0   171,136        0         0 
 activations                           0         0        0   214,208 
 io                                    0         0        0         0 
 ------------------------------ -------- --------- -------- --------- 
 TOTAL                            27,928   196,699   23,864   215,184 
 ------------------------------ -------- --------- -------- --------- 
 *  toolchain objects (libm/libgcc*)
 ** RT AI runtime objects (kernels+infrastructure)
  
  Summary - "stm32f7" target
  ---------------------------------------------------
               FLASH (ro)      %*   RAM (rw)       % 
  ---------------------------------------------------
  RT total         77,355   31.1%     24,840   10.4% 
  ---------------------------------------------------
  TOTAL           248,491            239,048         
  ---------------------------------------------------
  *  rt/total


Generated files (7)
------------------------------------------------------------------------- 
C:\Users\redninjale\.stm32cubemx\od_model_output\od_model_data_params.h   
C:\Users\redninjale\.stm32cubemx\od_model_output\od_model_data_params.c   
C:\Users\redninjale\.stm32cubemx\od_model_output\od_model_data.h          
C:\Users\redninjale\.stm32cubemx\od_model_output\od_model_data.c          
C:\Users\redninjale\.stm32cubemx\od_model_output\od_model_config.h        
C:\Users\redninjale\.stm32cubemx\od_model_output\od_model.h               
C:\Users\redninjale\.stm32cubemx\od_model_output\od_model.c               
